wear/src/main/ml/mobilenet_v1_0.25_192_quantized_1_metadata_1.tflite (tflite, 508786 bytes, 28 tensors)

MobilenetV1/Logits/Conv2d_1c_1x1/weights_quant/FakeQuantWithMinMaxVars u1 [1001, 1, 1, 256] scale=0.006442748 zero_point=81
0	0x4f	-0.012885496
1	0x4f	-0.012885496
2	0x4c	-0.03221374
3	0x4f	-0.012885496
4	0x4e	-0.019328244
5	0x50	-0.006442748
6	0x4f	-0.012885496
7	0x4f	-0.012885496
8	0x4e	-0.019328244
9	0x50	-0.006442748
10	0x4e	-0.019328244
11	0x4f	-0.012885496
12	0x4f	-0.012885496
13	0x4f	-0.012885496
14	0x4e	-0.019328244
15	0x4f	-0.012885496
16	0x4e	-0.019328244
17	0x4e	-0.019328244
18	0x4e	-0.019328244
19	0x4f	-0.012885496
20	0x4f	-0.012885496
21	0x4e	-0.019328244
22	0x4f	-0.012885496
23	0x4f	-0.012885496
24	0x4f	-0.012885496
25	0x50	-0.006442748
26	0x4f	-0.012885496
27	0x4f	-0.012885496
28	0x4f	-0.012885496
29	0x4f	-0.012885496
30	0x50	-0.006442748
31	0x4f	-0.012885496
32	0x4f	-0.012885496
33	0x4f	-0.012885496
34	0x4d	-0.025770992
35	0x4f	-0.012885496
36	0x4e	-0.019328244
37	0x50	-0.006442748
38	0x4f	-0.012885496
39	0x4f	-0.012885496
40	0x4f	-0.012885496
41	0x4f	-0.012885496
42	0x4e	-0.019328244
43	0x4f	-0.012885496
44	0x4f	-0.012885496
45	0x4f	-0.012885496
46	0x4f	-0.012885496
47	0x4e	-0.019328244
48	0x4f	-0.012885496
49	0x4f	-0.012885496
50	0x4f	-0.012885496
51	0x4f	-0.012885496
52	0x4f	-0.012885496
53	0x4f	-0.012885496
54	0x4e	-0.019328244
55	0x4f	-0.012885496
56	0x4f	-0.012885496
57	0x4f	-0.012885496
58	0x4e	-0.019328244
59	0x4f	-0.012885496
60	0x4e	-0.019328244
61	0x4f	-0.012885496
62	0x4f	-0.012885496
63	0x4f	-0.012885496
64	0x4f	-0.012885496
65	0x4f	-0.012885496
66	0x50	-0.006442748
67	0x4e	-0.019328244
68	0x4f	-0.012885496
69	0x4f	-0.012885496
70	0x4e	-0.019328244
71	0x50	-0.006442748
72	0x50	-0.006442748
73	0x4f	-0.012885496
74	0x4f	-0.012885496
75	0x4d	-0.025770992
76	0x4f	-0.012885496
77	0x4f	-0.012885496
78	0x4f	-0.012885496
79	0x4f	-0.012885496
80	0x4f	-0.012885496
81	0x4e	-0.019328244
82	0x4e	-0.019328244
83	0x4f	-0.012885496
84	0x4f	-0.012885496
85	0x4e	-0.019328244
86	0x4e	-0.019328244
87	0x4f	-0.012885496
88	0x4f	-0.012885496
89	0x4f	-0.012885496
90	0x4f	-0.012885496
91	0x4f	-0.012885496
92	0x4f	-0.012885496
93	0x4e	-0.019328244
94	0x4f	-0.012885496
95	0x4f	-0.012885496
96	0x4f	-0.012885496
97	0x4e	-0.019328244
98	0x4f	-0.012885496
99	0x4d	-0.025770992
100	0x50	-0.006442748
101	0x4f	-0.012885496
102	0x4f	-0.012885496
103	0x4e	-0.019328244
104	0x4f	-0.012885496
105	0x4f	-0.012885496
106	0x4e	-0.019328244
107	0x4f	-0.012885496
108	0x4e	-0.019328244
109	0x4f	-0.012885496
110	0x4e	-0.019328244
111	0x4f	-0.012885496
112	0x50	-0.006442748
113	0x50	-0.006442748
114	0x4e	-0.019328244
115	0x4f	-0.012885496
116	0x4f	-0.012885496
117	0x4f	-0.012885496
118	0x50	-0.006442748
119	0x4f	-0.012885496
120	0x4d	-0.025770992
121	0x4e	-0.019328244
122	0x4f	-0.012885496
123	0x4f	-0.012885496
124	0x4f	-0.012885496
125	0x4d	-0.025770992
126	0x4f	-0.012885496
127	0x4f	-0.012885496
128	0x4d	-0.025770992
129	0x4f	-0.012885496
130	0x4e	-0.019328244
131	0x50	-0.006442748
132	0x4f	-0.012885496
133	0x4f	-0.012885496
134	0x4f	-0.012885496
135	0x4f	-0.012885496
136	0x4f	-0.012885496
137	0x50	-0.006442748
138	0x4f	-0.012885496
139	0x4f	-0.012885496
140	0x4e	-0.019328244
141	0x4f	-0.012885496
142	0x50	-0.006442748
143	0x50	-0.006442748
144	0x4e	-0.019328244
145	0x4f	-0.012885496
146	0x4f	-0.012885496
147	0x4e	-0.019328244
148	0x4e	-0.019328244
149	0x4f	-0.012885496
150	0x50	-0.006442748
151	0x4d	-0.025770992
152	0x4f	-0.012885496
153	0x4f	-0.012885496
154	0x4f	-0.012885496
155	0x4f	-0.012885496
156	0x4f	-0.012885496
157	0x4e	-0.019328244
158	0x4f	-0.012885496
159	0x4f	-0.012885496
160	0x4f	-0.012885496
161	0x50	-0.006442748
162	0x4f	-0.012885496
163	0x4e	-0.019328244
164	0x4f	-0.012885496
165	0x4f	-0.012885496
166	0x4f	-0.012885496
167	0x4f	-0.012885496
168	0x4e	-0.019328244
169	0x4f	-0.012885496
170	0x4e	-0.019328244
171	0x4e	-0.019328244
172	0x4f	-0.012885496
173	0x4e	-0.019328244
174	0x4e	-0.019328244
175	0x4f	-0.012885496
176	0x4d	-0.025770992
177	0x4e	-0.019328244
178	0x4f	-0.012885496
179	0x4f	-0.012885496
180	0x4f	-0.012885496
181	0x4e	-0.019328244
182	0x4f	-0.012885496
183	0x4f	-0.012885496
184	0x4f	-0.012885496
185	0x4f	-0.012885496
186	0x4e	-0.019328244
187	0x4f	-0.012885496
188	0x4e	-0.019328244
189	0x4f	-0.012885496
190	0x4f	-0.012885496
191	0x4f	-0.012885496
192	0x4f	-0.012885496
193	0x4f	-0.012885496
194	0x4f	-0.012885496
195	0x4f	-0.012885496
196	0x4f	-0.012885496
197	0x4f	-0.012885496
198	0x4d	-0.025770992
199	0x4f	-0.012885496
200	0x4f	-0.012885496
201	0x4f	-0.012885496
202	0x4f	-0.012885496
203	0x50	-0.006442748
204	0x50	-0.006442748
205	0x50	-0.006442748
206	0x4f	-0.012885496
207	0x4f	-0.012885496
208	0x4d	-0.025770992
209	0x4f	-0.012885496
210	0x4e	-0.019328244
211	0x4e	-0.019328244
212	0x4f	-0.012885496
213	0x4f	-0.012885496
214	0x4f	-0.012885496
215	0x4f	-0.012885496
216	0x4f	-0.012885496
217	0x50	-0.006442748
218	0x4f	-0.012885496
219	0x50	-0.006442748
220	0x4f	-0.012885496
221	0x4f	-0.012885496
222	0x4f	-0.012885496
223	0x4d	-0.025770992
224	0x4f	-0.012885496
225	0x4f	-0.012885496
226	0x4f	-0.012885496
227	0x50	-0.006442748
228	0x4f	-0.012885496
229	0x4f	-0.012885496
230	0x4f	-0.012885496
231	0x4f	-0.012885496
232	0x4e	-0.019328244
233	0x4f	-0.012885496
234	0x4f	-0.012885496
235	0x4e	-0.019328244
236	0x4f	-0.012885496
237	0x4d	-0.025770992
238	0x4d	-0.025770992
239	0x4e	-0.019328244
240	0x4f	-0.012885496
241	0x4f	-0.012885496
242	0x4c	-0.03221374
243	0x4f	-0.012885496
244	0x4f	-0.012885496
245	0x4f	-0.012885496
246	0x4e	-0.019328244
247	0x4f	-0.012885496
248	0x4f	-0.012885496
249	0x50	-0.006442748
250	0x50	-0.006442748
251	0x4d	-0.025770992
252	0x4f	-0.012885496
253	0x4f	-0.012885496
254	0x4f	-0.012885496
255	0x4e	-0.019328244

MobilenetV1/MobilenetV1/Conv2d_0/weights_quant/FakeQuantWithMinMaxVars u1 [8, 3, 3, 3] scale=0.00391156 zero_point=124
0	0x7f	0.011734679
1	0x7c	0.0
2	0x7e	0.00782312
3	0x7f	0.011734679
4	0x7c	0.0
5	0x7f	0.011734679
6	0x7e	0.00782312
7	0x7c	0.0
8	0x7e	0.00782312
9	0x81	0.0195578
10	0x7d	0.00391156
11	0x80	0.01564624
12	0x82	0.023469359
13	0x7f	0.011734679
14	0x80	0.01564624
15	0x7f	0.011734679
16	0x7c	0.0
17	0x7f	0.011734679
18	0x81	0.0195578
19	0x7e	0.00782312
20	0x81	0.0195578
21	0x83	0.02738092
22	0x7f	0.011734679
23	0x82	0.023469359
24	0x82	0.023469359
25	0x7e	0.00782312
26	0x81	0.0195578
27	0x7d	0.00391156
28	0x7e	0.00782312
29	0x80	0.01564624
30	0x7c	0.0
31	0x7c	0.0
32	0x7d	0.00391156
33	0x7b	-0.00391156
34	0x7b	-0.00391156
35	0x7b	-0.00391156
36	0x7b	-0.00391156
37	0x7c	0.0
38	0x7e	0.00782312
39	0x7c	0.0
40	0x7d	0.00391156
41	0x7d	0.00391156
42	0x7d	0.00391156
43	0x7d	0.00391156
44	0x7c	0.0
45	0x7b	-0.00391156
46	0x7c	0.0
47	0x7e	0.00782312
48	0x7c	0.0
49	0x7d	0.00391156
50	0x7d	0.00391156
51	0x7e	0.00782312
52	0x7e	0.00782312
53	0x7d	0.00391156
54	0x95	0.097789
55	0x2c	-0.3129248
56	0xb4	0.21904735
57	0xa8	0.17210864
58	0x20	-0.35986352
59	0xab	0.18384331
60	0x93	0.08996588
61	0x44	-0.21904735
62	0x9d	0.12908147
63	0xb1	0.20731267
64	0x10	-0.4224485
65	0xb3	0.2151358
66	0xcb	0.30901325
67	0x02	-0.4772103
68	0xa7	0.16819708
69	0xa9	0.17602019
70	0x21	-0.35595196
71	0xaa	0.17993176
72	0x9f	0.1369046
73	0x34	-0.2816323
74	0xa3	0.15255083
75	0xa7	0.16819708
76	0x23	-0.34812883
77	0xac	0.18775487
78	0x88	0.046938717
79	0x3b	-0.2542514
80	0xb1	0.20731267
81	0xf4	0.4693872
82	0x46	-0.21122424
83	0x3a	-0.25816295
84	0xd9	0.36377507
85	0x24	-0.34421727
86	0x77	-0.0195578
87	0xc1	0.26989764
88	0x7e	0.00782312
89	0x36	-0.2738092
90	0xff	0.51241434
91	0x3c	-0.25033984
92	0x3c	-0.25033984
93	0xc7	0.293367
94	0x01	-0.48112187
95	0xa7	0.16819708
96	0xad	0.19166644
97	0x75	-0.02738092
98	0x54	-0.1564624
99	0xd1	0.3324826
100	0x74	-0.03129248
101	0x2b	-0.31683636
102	0xca	0.30510166
103	0x5c	-0.12516992
104	0x51	-0.16819708
105	0x90	0.0782312
106	0xa4	0.1564624
107	0x39	-0.26207453
108	0xca	0.30510166
109	0xd1	0.3324826
110	0xac	0.18775487
111	0x98	0.10952368
112	0xa1	0.14472772
113	0x7e	0.00782312
114	0x98	0.10952368
115	0xa4	0.1564624
116	0x73	-0.035204038
117	0x90	0.0782312
118	0x9d	0.12908147
119	0x7c	0.0
120	0x6d	-0.0586734
121	0x7b	-0.00391156
122	0x5b	-0.12908147
123	0x78	-0.01564624
124	0x87	0.04302716
125	0x59	-0.1369046
126	0x82	0.023469359
127	0x97	0.10561212
128	0x76	-0.023469359
129	0x6c	-0.06258496
130	0x81	0.0195578
131	0x60	-0.10952368
132	0x78	-0.01564624
133	0x8a	0.05476184
134	0x5f	-0.11343524
135	0x59	-0.1369046
136	0x41	-0.23078203
137	0x6d	-0.0586734
138	0x55	-0.15255083
139	0x32	-0.28945544
140	0x6c	-0.06258496
141	0x74	-0.03129248
142	0x75	-0.02738092
143	0x76	-0.023469359
144	0x4b	-0.19166644
145	0x33	-0.2855439
146	0x6b	-0.06649652
147	0x49	-0.19948956
148	0x25	-0.34030572
149	0x6c	-0.06258496
150	0x70	-0.046938717
151	0x76	-0.023469359
152	0x77	-0.0195578
153	0x70	-0.046938717
154	0x74	-0.03129248
155	0x79	-0.011734679
156	0x6b	-0.06649652
157	0x73	-0.035204038
158	0x7b	-0.00391156
159	0x82	0.023469359
160	0x88	0.046938717
161	0x7e	0.00782312
162	0x7c	0.0
163	0x7d	0.00391156
164	0x7d	0.00391156
165	0x7c	0.0
166	0x7d	0.00391156
167	0x7d	0.00391156
168	0x7c	0.0
169	0x7c	0.0
170	0x7d	0.00391156
171	0x7c	0.0
172	0x7d	0.00391156
173	0x7d	0.00391156
174	0x7c	0.0
175	0x7d	0.00391156
176	0x7d	0.00391156
177	0x7c	0.0
178	0x7c	0.0
179	0x7d	0.00391156
180	0x7c	0.0
181	0x7d	0.00391156
182	0x7d	0.00391156
183	0x7c	0.0
184	0x7d	0.00391156
185	0x7d	0.00391156
186	0x7c	0.0
187	0x7c	0.0
188	0x7c	0.0
189	0x84	0.03129248
190	0x83	0.02738092
191	0x80	0.01564624
192	0x86	0.0391156
193	0x85	0.035204038
194	0x80	0.01564624
195	0x85	0.035204038
196	0x84	0.03129248
197	0x80	0.01564624
198	0x84	0.03129248
199	0x85	0.035204038
200	0x82	0.023469359
201	0x86	0.0391156
202	0x86	0.0391156
203	0x81	0.0195578
204	0x84	0.03129248
205	0x84	0.03129248
206	0x81	0.0195578
207	0x82	0.023469359
208	0x83	0.02738092
209	0x80	0.01564624
210	0x82	0.023469359
211	0x82	0.023469359
212	0x7f	0.011734679
213	0x85	0.035204038
214	0x84	0.03129248
215	0x81	0.0195578

MobilenetV1/MobilenetV1/Conv2d_10_depthwise/weights_quant/FakeQuantWithMinMaxVars u1 [1, 3, 3, 128] scale=0.020623207 zero_point=151
0	0x9c	0.103116035
1	0xa7	0.3299713
2	0xa8	0.35059452
3	0xa2	0.22685528
4	0xa6	0.3093481
5	0xbe	0.8043051
6	0x98	0.020623207
7	0x9c	0.103116035
8	0x98	0.020623207
9	0xa1	0.20623207
10	0x98	0.020623207
11	0x9b	0.08249283
12	0x99	0.041246414
13	0x99	0.041246414
14	0x97	0.0
15	0x9b	0.08249283
16	0x8f	-0.16498566
17	0x95	-0.041246414
18	0x92	-0.103116035
19	0xa2	0.22685528
20	0x97	0.0
21	0x98	0.020623207
22	0x9e	0.14436245
23	0x99	0.041246414
24	0x97	0.0
25	0x94	-0.06186962
26	0x96	-0.020623207
27	0x96	-0.020623207
28	0x9d	0.12373924
29	0xae	0.47433376
30	0x94	-0.06186962
31	0xac	0.43308735
32	0x99	0.041246414
33	0x9b	0.08249283
34	0x92	-0.103116035
35	0x9d	0.12373924
36	0x89	-0.2887249
37	0x8c	-0.22685528
38	0x98	0.020623207
39	0x95	-0.041246414
40	0x99	0.041246414
41	0x9d	0.12373924
42	0x9d	0.12373924
43	0x91	-0.12373924
44	0x97	0.0
45	0x91	-0.12373924
46	0xa6	0.3093481
47	0xb2	0.5568266
48	0x96	-0.020623207
49	0x95	-0.041246414
50	0x9a	0.06186962
51	0x98	0.020623207
52	0x98	0.020623207
53	0x92	-0.103116035
54	0xa1	0.20623207
55	0x97	0.0
56	0xa2	0.22685528
57	0x86	-0.35059452
58	0x93	-0.08249283
59	0x93	-0.08249283
60	0x95	-0.041246414
61	0xaa	0.39184093
62	0xa2	0.22685528
63	0x9a	0.06186962
64	0x95	-0.041246414
65	0x99	0.041246414
66	0x8c	-0.22685528
67	0x97	0.0
68	0xa9	0.37121773
69	0x92	-0.103116035
70	0xa8	0.35059452
71	0x94	-0.06186962
72	0x94	-0.06186962
73	0xa1	0.20623207
74	0xa4	0.2681017
75	0x96	-0.020623207
76	0xa9	0.37121773
77	0x92	-0.103116035
78	0x91	-0.12373924
79	0x9b	0.08249283
80	0x94	-0.06186962
81	0x8d	-0.20623207
82	0x99	0.041246414
83	0x8d	-0.20623207
84	0x99	0.041246414
85	0x98	0.020623207
86	0x9a	0.06186962
87	0x91	-0.12373924
88	0x94	-0.06186962
89	0x8c	-0.22685528
90	0x9c	0.103116035
91	0x94	-0.06186962
92	0x95	-0.041246414
93	0x9b	0.08249283
94	0x90	-0.14436245
95	0x93	-0.08249283
96	0x9b	0.08249283
97	0x99	0.041246414
98	0x8b	-0.24747849
99	0x9b	0.08249283
100	0x8d	-0.20623207
101	0x8d	-0.20623207
102	0x94	-0.06186962
103	0x96	-0.020623207
104	0x9b	0.08249283
105	0x9d	0.12373924
106	0x9b	0.08249283
107	0x95	-0.041246414
108	0x91	-0.12373924
109	0xa1	0.20623207
110	0x90	-0.14436245
111	0x97	0.0
112	0xa8	0.35059452
113	0x98	0.020623207
114	0x92	-0.103116035
115	0x93	-0.08249283
116	0x95	-0.041246414
117	0x96	-0.020623207
118	0x8f	-0.16498566
119	0x98	0.020623207
120	0x93	-0.08249283
121	0x95	-0.041246414
122	0x93	-0.08249283
123	0x99	0.041246414
124	0x95	-0.041246414
125	0x92	-0.103116035
126	0x8e	-0.18560886
127	0x97	0.0
128	0x9c	0.103116035
129	0xa7	0.3299713
130	0x9e	0.14436245
131	0x98	0.020623207
132	0xc2	0.8867979
133	0xcd	1.1136532
134	0x91	-0.12373924
135	0xa5	0.2887249
136	0xa4	0.2681017
137	0x9c	0.103116035
138	0x99	0.041246414
139	0x93	-0.08249283
140	0x9c	0.103116035
141	0xa0	0.18560886
142	0x95	-0.041246414
143	0x9b	0.08249283
144	0x90	-0.14436245
145	0xc1	0.8661747
146	0x8f	-0.16498566
147	0x9f	0.16498566
148	0x97	0.0
149	0x9f	0.16498566
150	0xa8	0.35059452
151	0x9e	0.14436245
152	0xa2	0.22685528
153	0x8b	-0.24747849
154	0x97	0.0
155	0x97	0.0
156	0x94	-0.06186962
157	0xa5	0.2887249
158	0x86	-0.35059452
159	0xab	0.41246414
160	0x81	-0.45371056
161	0x8e	-0.18560886
162	0x8e	-0.18560886
163	0x97	0.0
164	0x9e	0.14436245
165	0x8a	-0.2681017
166	0x91	-0.12373924
167	0xa6	0.3093481
168	0xa2	0.22685528
169	0x9e	0.14436245
170	0xa5	0.2887249
171	0x83	-0.41246414
172	0x97	0.0
173	0x8e	-0.18560886
174	0x94	-0.06186962
175	0x9c	0.103116035
176	0x8f	-0.16498566
177	0x97	0.0
178	0x9e	0.14436245
179	0xa1	0.20623207
180	0x95	-0.041246414
181	0x92	-0.103116035
182	0xa8	0.35059452
183	0x95	-0.041246414
184	0xb2	0.5568266
185	0x91	-0.12373924
186	0x8c	-0.22685528
187	0xa0	0.18560886
188	0x8b	-0.24747849
189	0xa7	0.3299713
190	0xa3	0.24747849
191	0x7c	-0.5568266
192	0x90	-0.14436245
193	0x8f	-0.16498566
194	0x75	-0.70118904
195	0xab	0.41246414
196	0xbd	0.78368187
197	0x8e	-0.18560886
198	0xa5	0.2887249
199	0x98	0.020623207
200	0x96	-0.020623207
201	0x99	0.041246414
202	0xbd	0.78368187
203	0x8f	-0.16498566
204	0xb0	0.5155802
205	0x85	-0.37121773
206	0x9a	0.06186962
207	0x9c	0.103116035
208	0x91	-0.12373924
209	0x8d	-0.20623207
210	0x92	-0.103116035
211	0x85	-0.37121773
212	0x88	-0.3093481
213	0x9f	0.16498566
214	0xa8	0.35059452
215	0x68	-0.96929073
216	0x8e	-0.18560886
217	0x91	-0.12373924
218	0x8b	-0.24747849
219	0x94	-0.06186962
220	0x8d	-0.20623207
221	0x9c	0.103116035
222	0x79	-0.6186962
223	0x89	-0.2887249
224	0x9c	0.103116035
225	0x99	0.041246414
226	0x96	-0.020623207
227	0xa1	0.20623207
228	0x8f	-0.16498566
229	0x8d	-0.20623207
230	0x80	-0.47433376
231	0x96	-0.020623207
232	0xa5	0.2887249
233	0xbe	0.8043051
234	0xa1	0.20623207
235	0x9c	0.103116035
236	0xa5	0.2887249
237	0xb0	0.5155802
238	0x8d	-0.20623207
239	0x93	-0.08249283
240	0x9f	0.16498566
241	0x88	-0.3093481
242	0x8e	-0.18560886
243	0x95	-0.041246414
244	0x8f	-0.16498566
245	0x8e	-0.18560886
246	0x8f	-0.16498566
247	0xa0	0.18560886
248	0x90	-0.14436245
249	0x84	-0.39184093
250	0x85	-0.37121773
251	0x96	-0.020623207
252	0x84	-0.39184093
253	0x92	-0.103116035
254	0x7c	-0.5568266
255	0x8f	-0.16498566

MobilenetV1/MobilenetV1/Conv2d_10_pointwise/weights_quant/FakeQuantWithMinMaxVars u1 [128, 1, 1, 128] scale=0.010818605 zero_point=128
0	0x80	0.0
1	0x58	-0.4327442
2	0x82	0.02163721
3	0x82	0.02163721
4	0x75	-0.11900466
5	0x7e	-0.02163721
6	0x81	0.010818605
7	0x83	0.032455817
8	0x85	0.054093026
9	0x80	0.0
10	0x8d	0.14064187
11	0x77	-0.09736745
12	0x7a	-0.064911634
13	0x7d	-0.032455817
14	0x89	0.09736745
15	0x84	0.04327442
16	0x7d	-0.032455817
17	0x8b	0.11900466
18	0x8a	0.10818605
19	0x7b	-0.054093026
20	0x7d	-0.032455817
21	0x7b	-0.054093026
22	0x82	0.02163721
23	0x7d	-0.032455817
24	0x82	0.02163721
25	0x8a	0.10818605
26	0x83	0.032455817
27	0x82	0.02163721
28	0x8c	0.12982327
29	0x84	0.04327442
30	0x74	-0.12982327
31	0x89	0.09736745
32	0x7a	-0.064911634
33	0x80	0.0
34	0x9b	0.29210234
35	0x7d	-0.032455817
36	0x82	0.02163721
37	0x93	0.2055535
38	0x7f	-0.010818605
39	0x84	0.04327442
40	0x80	0.0
41	0x7f	-0.010818605
42	0x7f	-0.010818605
43	0x7f	-0.010818605
44	0x79	-0.075730234
45	0x84	0.04327442
46	0x81	0.010818605
47	0x83	0.032455817
48	0x82	0.02163721
49	0x8b	0.11900466
50	0x7a	-0.064911634
51	0x7a	-0.064911634
52	0x84	0.04327442
53	0x87	0.075730234
54	0x79	-0.075730234
55	0x7b	-0.054093026
56	0x8f	0.16227908
57	0x88	0.08654884
58	0x86	0.064911634
59	0x76	-0.10818605
60	0x84	0.04327442
61	0x79	-0.075730234
62	0x7b	-0.054093026
63	0x76	-0.10818605
64	0x80	0.0
65	0x8a	0.10818605
66	0x7f	-0.010818605
67	0x99	0.27046514
68	0x7b	-0.054093026
69	0x79	-0.075730234
70	0xb0	0.51929307
71	0x7a	-0.064911634
72	0x82	0.02163721
73	0x83	0.032455817
74	0x81	0.010818605
75	0x7c	-0.04327442
76	0x7a	-0.064911634
77	0x78	-0.08654884
78	0x80	0.0
79	0x77	-0.09736745
80	0x89	0.09736745
81	0x82	0.02163721
82	0x7d	-0.032455817
83	0x84	0.04327442
84	0x8f	0.16227908
85	0x7a	-0.064911634
86	0x83	0.032455817
87	0x76	-0.10818605
88	0x7f	-0.010818605
89	0x89	0.09736745
90	0x75	-0.11900466
91	0x90	0.17309768
92	0x75	-0.11900466
93	0x7d	-0.032455817
94	0x84	0.04327442
95	0x6f	-0.18391629
96	0x81	0.010818605
97	0x82	0.02163721
98	0x95	0.22719072
99	0x87	0.075730234
100	0x85	0.054093026
101	0x6a	-0.23800932
102	0x9a	0.28128374
103	0x85	0.054093026
104	0x87	0.075730234
105	0x80	0.0
106	0x7b	-0.054093026
107	0x80	0.0
108	0x78	-0.08654884
109	0x6d	-0.2055535
110	0x81	0.010818605
111	0x8b	0.11900466
112	0xab	0.46520004
113	0x86	0.064911634
114	0x6f	-0.18391629
115	0x79	-0.075730234
116	0x2d	-0.8979442
117	0x85	0.054093026
118	0x86	0.064911634
119	0x7f	-0.010818605
120	0x7f	-0.010818605
121	0x89	0.09736745
122	0x74	-0.12982327
123	0x83	0.032455817
124	0x7f	-0.010818605
125	0x8a	0.10818605
126	0x80	0.0
127	0x85	0.054093026
128	0x85	0.054093026
129	0x68	-0.25964653
130	0x7b	-0.054093026
131	0x83	0.032455817
132	0x81	0.010818605
133	0x7d	-0.032455817
134	0x7c	-0.04327442
135	0x84	0.04327442
136	0x80	0.0
137	0x89	0.09736745
138	0x80	0.0
139	0x74	-0.12982327
140	0x6e	-0.1947349
141	0x7f	-0.010818605
142	0x8d	0.14064187
143	0x7a	-0.064911634
144	0x87	0.075730234
145	0x87	0.075730234
146	0x78	-0.08654884
147	0x77	-0.09736745
148	0x82	0.02163721
149	0x8f	0.16227908
150	0x81	0.010818605
151	0x78	-0.08654884
152	0x73	-0.14064187
153	0x77	-0.09736745
154	0x76	-0.10818605
155	0x78	-0.08654884
156	0x83	0.032455817
157	0x8b	0.11900466
158	0x80	0.0
159	0x82	0.02163721
160	0x6a	-0.23800932
161	0x79	-0.075730234
162	0x7a	-0.064911634
163	0x73	-0.14064187
164	0x7c	-0.04327442
165	0x8f	0.16227908
166	0x8d	0.14064187
167	0x75	-0.11900466
168	0x89	0.09736745
169	0x87	0.075730234
170	0x89	0.09736745
171	0x91	0.18391629
172	0x80	0.0
173	0x7d	-0.032455817
174	0x72	-0.15146047
175	0x83	0.032455817
176	0x7c	-0.04327442
177	0x75	-0.11900466
178	0x84	0.04327442
179	0x77	-0.09736745
180	0x8b	0.11900466
181	0x99	0.27046514
182	0x85	0.054093026
183	0x75	-0.11900466
184	0x6f	-0.18391629
185	0x83	0.032455817
186	0x7b	-0.054093026
187	0x81	0.010818605
188	0x8c	0.12982327
189	0x79	-0.075730234
190	0x79	-0.075730234
191	0x6e	-0.1947349
192	0x83	0.032455817
193	0x71	-0.16227908
194	0x92	0.1947349
195	0x88	0.08654884
196	0x8d	0.14064187
197	0x7c	-0.04327442
198	0x66	-0.28128374
199	0x84	0.04327442
200	0x7b	-0.054093026
201	0x7e	-0.02163721
202	0x88	0.08654884
203	0x6d	-0.2055535
204	0x83	0.032455817
205	0x78	-0.08654884
206	0x99	0.27046514
207	0x8b	0.11900466
208	0x6f	-0.18391629
209	0x77	-0.09736745
210	0x8d	0.14064187
211	0x80	0.0
212	0x73	-0.14064187
213	0x81	0.010818605
214	0x89	0.09736745
215	0x59	-0.4219256
216	0x82	0.02163721
217	0x69	-0.24882792
218	0x70	-0.17309768
219	0x75	-0.11900466
220	0x84	0.04327442
221	0x92	0.1947349
222	0x96	0.23800932
223	0x78	-0.08654884
224	0x80	0.0
225	0x79	-0.075730234
226	0x7f	-0.010818605
227	0x9e	0.32455817
228	0x7c	-0.04327442
229	0x80	0.0
230	0x6d	-0.2055535
231	0x78	-0.08654884
232	0x83	0.032455817
233	0x8f	0.16227908
234	0x76	-0.10818605
235	0x6b	-0.22719072
236	0x88	0.08654884
237	0x7b	-0.054093026
238	0xa2	0.36783257
239	0x7f	-0.010818605
240	0x75	-0.11900466
241	0xa3	0.37865117
242	0x88	0.08654884
243	0x91	0.18391629
244	0x76	-0.10818605
245	0x8a	0.10818605
246	0x80	0.0
247	0x85	0.054093026
248	0x80	0.0
249	0x6c	-0.2163721
250	0x83	0.032455817
251	0x78	-0.08654884
252	0x94	0.2163721
253	0x92	0.1947349
254	0x80	0.0
255	0x8a	0.10818605

MobilenetV1/MobilenetV1/Conv2d_11_depthwise/weights_quant/FakeQuantWithMinMaxVars u1 [1, 3, 3, 128] scale=0.02002116 zero_point=151
0	0x99	0.04004232
1	0xa8	0.34035972
2	0x98	0.02002116
3	0x9c	0.10010579
4	0x9a	0.060063478
5	0x93	-0.08008464
6	0x9e	0.14014812
7	0x98	0.02002116
8	0x97	0.0
9	0xa2	0.22023275
10	0x9b	0.08008464
11	0x99	0.04004232
12	0xa0	0.18019043
13	0x99	0.04004232
14	0x96	-0.02002116
15	0xa7	0.32033855
16	0xa1	0.20021158
17	0x91	-0.120126955
18	0x88	-0.30031738
19	0x98	0.02002116
20	0x9c	0.10010579
21	0x87	-0.32033855
22	0xa1	0.20021158
23	0x9f	0.16016927
24	0x90	-0.14014812
25	0xa2	0.22023275
26	0x97	0.0
27	0x9b	0.08008464
28	0x99	0.04004232
29	0x8e	-0.18019043
30	0xa1	0.20021158
31	0x87	-0.32033855
32	0x9a	0.060063478
33	0x9e	0.14014812
34	0x8b	-0.24025391
35	0x9d	0.120126955
36	0x8d	-0.20021158
37	0x9b	0.08008464
38	0x95	-0.04004232
39	0x9e	0.14014812
40	0xa0	0.18019043
41	0x8e	-0.18019043
42	0x91	-0.120126955
43	0x98	0.02002116
44	0x8d	-0.20021158
45	0x95	-0.04004232
46	0xa0	0.18019043
47	0x98	0.02002116
48	0x88	-0.30031738
49	0x9e	0.14014812
50	0x79	-0.60063475
51	0x98	0.02002116
52	0x90	-0.14014812
53	0x8d	-0.20021158
54	0x9f	0.16016927
55	0x9e	0.14014812
56	0x94	-0.060063478
57	0x96	-0.02002116
58	0xb0	0.500529
59	0xa8	0.34035972
60	0x98	0.02002116
61	0x93	-0.08008464
62	0x95	-0.04004232
63	0x92	-0.10010579
64	0x88	-0.30031738
65	0x9a	0.060063478
66	0x9a	0.060063478
67	0x9e	0.14014812
68	0xa6	0.30031738
69	0xa3	0.24025391
70	0x8c	-0.22023275
71	0x98	0.02002116
72	0xa3	0.24025391
73	0x92	-0.10010579
74	0xa0	0.18019043
75	0x94	-0.060063478
76	0x9d	0.120126955
77	0xa0	0.18019043
78	0x8f	-0.16016927
79	0xa4	0.26027507
80	0xb5	0.60063475
81	0x81	-0.4404655
82	0x94	-0.060063478
83	0x87	-0.32033855
84	0x91	-0.120126955
85	0x8e	-0.18019043
86	0xa8	0.34035972
87	0x96	-0.02002116
88	0xad	0.4404655
89	0x8b	-0.24025391
90	0x92	-0.10010579
91	0x9f	0.16016927
92	0x87	-0.32033855
93	0x9d	0.120126955
94	0x8c	-0.22023275
95	0xa3	0.24025391
96	0x9a	0.060063478
97	0xa9	0.36038086
98	0x94	-0.060063478
99	0xa2	0.22023275
100	0x94	-0.060063478
101	0x8e	-0.18019043
102	0x93	-0.08008464
103	0x94	-0.060063478
104	0x9f	0.16016927
105	0x8d	-0.20021158
106	0x8f	-0.16016927
107	0xa4	0.26027507
108	0x98	0.02002116
109	0x8d	-0.20021158
110	0x8a	-0.26027507
111	0x8e	-0.18019043
112	0xb5	0.60063475
113	0xa1	0.20021158
114	0xa2	0.22023275
115	0x94	-0.060063478
116	0x8d	-0.20021158
117	0x9e	0.14014812
118	0x93	-0.08008464
119	0x92	-0.10010579
120	0x98	0.02002116
121	0x99	0.04004232
122	0x6d	-0.8408887
123	0x93	-0.08008464
124	0x92	-0.10010579
125	0x93	-0.08008464
126	0x87	-0.32033855
127	0x9f	0.16016927
128	0x8e	-0.18019043
129	0xa2	0.22023275
130	0x81	-0.4404655
131	0xa3	0.24025391
132	0x8b	-0.24025391
133	0x90	-0.14014812
134	0xa2	0.22023275
135	0x9d	0.120126955
136	0x87	-0.32033855
137	0xae	0.46048665
138	0x9c	0.10010579
139	0xa0	0.18019043
140	0x99	0.04004232
141	0xa6	0.30031738
142	0xa1	0.20021158
143	0xb5	0.60063475
144	0x97	0.0
145	0x7b	-0.5605925
146	0x88	-0.30031738
147	0x95	-0.04004232
148	0xa3	0.24025391
149	0x71	-0.76080406
150	0xa6	0.30031738
151	0xa2	0.22023275
152	0x8e	-0.18019043
153	0xb6	0.62065595
154	0x98	0.02002116
155	0xb5	0.60063475
156	0x9f	0.16016927
157	0x92	-0.10010579
158	0xae	0.46048665
159	0x8b	-0.24025391
160	0xb4	0.5806136
161	0xac	0.42044434
162	0x8c	-0.22023275
163	0x8a	-0.26027507
164	0x8e	-0.18019043
165	0xa7	0.32033855
166	0x84	-0.38040203
167	0xa3	0.24025391
168	0xb5	0.60063475
169	0x8d	-0.20021158
170	0xa7	0.32033855
171	0x9f	0.16016927
172	0x92	-0.10010579
173	0xa4	0.26027507
174	0xa9	0.36038086
175	0xa3	0.24025391
176	0xa6	0.30031738
177	0xb0	0.500529
178	0x95	-0.04004232
179	0xa2	0.22023275
180	0x91	-0.120126955
181	0x8b	-0.24025391
182	0x83	-0.40042317
183	0xaa	0.38040203
184	0x87	-0.32033855
185	0x87	-0.32033855
186	0xb8	0.66069824
187	0xbc	0.7407829
188	0xb7	0.6406771
189	0xa4	0.26027507
190	0x84	-0.38040203
191	0x83	-0.40042317
192	0x8d	-0.20021158
193	0xa2	0.22023275
194	0x9f	0.16016927
195	0xa5	0.28029624
196	0xb3	0.5605925
197	0xa8	0.34035972
198	0x87	-0.32033855
199	0xa9	0.36038086
200	0xa8	0.34035972
201	0xbe	0.7808252
202	0xa0	0.18019043
203	0x94	-0.060063478
204	0xad	0.4404655
205	0xb1	0.52055013
206	0x8a	-0.26027507
207	0xa2	0.22023275
208	0xb6	0.62065595
209	0x90	-0.14014812
210	0x8b	-0.24025391
211	0x86	-0.34035972
212	0x8f	-0.16016927
213	0x8d	-0.20021158
214	0xb6	0.62065595
215	0xc6	0.9409945
216	0x94	-0.060063478
217	0x8d	-0.20021158
218	0x8f	-0.16016927
219	0xa2	0.22023275
220	0x70	-0.7808252
221	0xa6	0.30031738
222	0x92	-0.10010579
223	0xa2	0.22023275
224	0xa4	0.26027507
225	0xb6	0.62065595
226	0x83	-0.40042317
227	0xa6	0.30031738
228	0x8d	-0.20021158
229	0xbd	0.76080406
230	0x8e	-0.18019043
231	0x80	-0.46048665
232	0xaa	0.38040203
233	0x8e	-0.18019043
234	0x8c	-0.22023275
235	0xb4	0.5806136
236	0xa9	0.36038086
237	0x8c	-0.22023275
238	0x53	-1.3614389
239	0x8c	-0.22023275
240	0xb1	0.52055013
241	0x8c	-0.22023275
242	0xb1	0.52055013
243	0xab	0.40042317
244	0x82	-0.42044434
245	0xa7	0.32033855
246	0x88	-0.30031738
247	0x8e	-0.18019043
248	0xa5	0.28029624
249	0x98	0.02002116
250	0xa0	0.18019043
251	0x8b	-0.24025391
252	0x7b	-0.5605925
253	0xa7	0.32033855
254	0x82	-0.42044434
255	0xb3	0.5605925

MobilenetV1/MobilenetV1/Conv2d_11_pointwise/weights_quant/FakeQuantWithMinMaxVars u1 [128, 1, 1, 128] scale=0.010135225 zero_point=120
0	0x6f	-0.091217026
1	0x5b	-0.29392153
2	0x72	-0.06081135
3	0x8b	0.19256927
4	0x70	-0.0810818
5	0x88	0.1621636
6	0x83	0.11148748
7	0x92	0.26351586
8	0x70	-0.0810818
9	0x69	-0.15202838
10	0x77	-0.010135225
11	0x72	-0.06081135
12	0x8d	0.21283972
13	0x90	0.2432454
14	0x66	-0.18243405
15	0x85	0.13175793
16	0x8b	0.19256927
17	0x70	-0.0810818
18	0x7b	0.030405674
19	0x8c	0.2027045
20	0x73	-0.050676126
21	0x78	0.0
22	0x78	0.0
23	0x62	-0.22297496
24	0x6e	-0.10135225
25	0x59	-0.31419197
26	0x6d	-0.11148748
27	0x90	0.2432454
28	0x70	-0.0810818
29	0x72	-0.06081135
30	0x7c	0.0405409
31	0x8b	0.19256927
32	0x83	0.11148748
33	0x83	0.11148748
34	0x91	0.25338063
35	0x7d	0.050676126
36	0x88	0.1621636
37	0x6e	-0.10135225
38	0x8c	0.2027045
39	0x7e	0.06081135
40	0x7d	0.050676126
41	0x75	-0.030405674
42	0x63	-0.21283972
43	0x93	0.27365106
44	0x84	0.1216227
45	0x79	0.010135225
46	0x82	0.10135225
47	0x82	0.10135225
48	0x84	0.1216227
49	0x85	0.13175793
50	0x71	-0.070946574
51	0x8b	0.19256927
52	0x7a	0.02027045
53	0x88	0.1621636
54	0x7b	0.030405674
55	0x9b	0.35473287
56	0x7b	0.030405674
57	0x66	-0.18243405
58	0x72	-0.06081135
59	0x86	0.14189315
60	0x63	-0.21283972
61	0x5e	-0.26351586
62	0x60	-0.2432454
63	0x67	-0.17229882
64	0x63	-0.21283972
65	0x72	-0.06081135
66	0x7f	0.070946574
67	0x79	0.010135225
68	0x85	0.13175793
69	0x7e	0.06081135
70	0x79	0.010135225
71	0x73	-0.050676126
72	0x70	-0.0810818
73	0x6d	-0.11148748
74	0x70	-0.0810818
75	0x84	0.1216227
76	0x71	-0.070946574
77	0x84	0.1216227
78	0x6b	-0.13175793
79	0x77	-0.010135225
80	0x84	0.1216227
81	0x86	0.14189315
82	0x64	-0.2027045
83	0x83	0.11148748
84	0x65	-0.19256927
85	0x7f	0.070946574
86	0x84	0.1216227
87	0x74	-0.0405409
88	0x71	-0.070946574
89	0x5c	-0.2837863
90	0x77	-0.010135225
91	0x70	-0.0810818
92	0x7c	0.0405409
93	0x8e	0.22297496
94	0x79	0.010135225
95	0x6c	-0.1216227
96	0x78	0.0
97	0x79	0.010135225
98	0x7d	0.050676126
99	0x7b	0.030405674
100	0x92	0.26351586
101	0x86	0.14189315
102	0x50	-0.405409
103	0x67	-0.17229882
104	0x6d	-0.11148748
105	0x6b	-0.13175793
106	0x74	-0.0405409
107	0x5f	-0.25338063
108	0x83	0.11148748
109	0x67	-0.17229882
110	0x81	0.091217026
111	0x63	-0.21283972
112	0x80	0.0810818
113	0x7a	0.02027045
114	0x87	0.15202838
115	0x5b	-0.29392153
116	0x75	-0.030405674
117	0x76	-0.02027045
118	0x98	0.3243272
119	0x78	0.0
120	0x67	-0.17229882
121	0x7b	0.030405674
122	0x8b	0.19256927
123	0x88	0.1621636
124	0x74	-0.0405409
125	0x6a	-0.14189315
126	0x8d	0.21283972
127	0x89	0.17229882
128	0x7a	0.02027045
129	0x82	0.10135225
130	0x7f	0.070946574
131	0x62	-0.22297496
132	0x79	0.010135225
133	0x88	0.1621636
134	0x7a	0.02027045
135	0x75	-0.030405674
136	0x83	0.11148748
137	0x7f	0.070946574
138	0x79	0.010135225
139	0x6f	-0.091217026
140	0x7d	0.050676126
141	0x89	0.17229882
142	0x79	0.010135225
143	0x72	-0.06081135
144	0x6d	-0.11148748
145	0x67	-0.17229882
146	0x76	-0.02027045
147	0x85	0.13175793
148	0x71	-0.070946574
149	0x79	0.010135225
150	0x78	0.0
151	0x70	-0.0810818
152	0x7c	0.0405409
153	0x7e	0.06081135
154	0x7a	0.02027045
155	0x78	0.0
156	0x6b	-0.13175793
157	0x6b	-0.13175793
158	0x88	0.1621636
159	0x77	-0.010135225
160	0x6d	-0.11148748
161	0x79	0.010135225
162	0x6d	-0.11148748
163	0x7e	0.06081135
164	0x79	0.010135225
165	0x7d	0.050676126
166	0x79	0.010135225
167	0x71	-0.070946574
168	0x7d	0.050676126
169	0x74	-0.0405409
170	0x75	-0.030405674
171	0x7b	0.030405674
172	0x77	-0.010135225
173	0x7c	0.0405409
174	0x79	0.010135225
175	0x7a	0.02027045
176	0x75	-0.030405674
177	0x73	-0.050676126
178	0x7e	0.06081135
179	0x79	0.010135225
180	0x7b	0.030405674
181	0x7b	0.030405674
182	0x77	-0.010135225
183	0x7e	0.06081135
184	0x73	-0.050676126
185	0x76	-0.02027045
186	0x6a	-0.14189315
187	0x70	-0.0810818
188	0x75	-0.030405674
189	0x74	-0.0405409
190	0x79	0.010135225
191	0x7a	0.02027045
192	0x77	-0.010135225
193	0x73	-0.050676126
194	0x79	0.010135225
195	0x7a	0.02027045
196	0x73	-0.050676126
197	0x78	0.0
198	0x7b	0.030405674
199	0x7b	0.030405674
200	0x78	0.0
201	0x6e	-0.10135225
202	0x6d	-0.11148748
203	0x77	-0.010135225
204	0x73	-0.050676126
205	0x77	-0.010135225
206	0x83	0.11148748
207	0x72	-0.06081135
208	0x75	-0.030405674
209	0x76	-0.02027045
210	0x76	-0.02027045
211	0x79	0.010135225
212	0x7f	0.070946574
213	0x7c	0.0405409
214	0x7e	0.06081135
215	0x7f	0.070946574
216	0x79	0.010135225
217	0x74	-0.0405409
218	0x72	-0.06081135
219	0x7b	0.030405674
220	0x7b	0.030405674
221	0x8a	0.18243405
222	0x82	0.10135225
223	0x7c	0.0405409
224	0x75	-0.030405674
225	0x74	-0.0405409
226	0x78	0.0
227	0x86	0.14189315
228	0x85	0.13175793
229	0x7a	0.02027045
230	0x7d	0.050676126
231	0x77	-0.010135225
232	0x82	0.10135225
233	0x7f	0.070946574
234	0x7a	0.02027045
235	0x75	-0.030405674
236	0x72	-0.06081135
237	0x7d	0.050676126
238	0x75	-0.030405674
239	0x87	0.15202838
240	0x73	-0.050676126
241	0x80	0.0810818
242	0x76	-0.02027045
243	0x83	0.11148748
244	0x78	0.0
245	0x7a	0.02027045
246	0x73	-0.050676126
247	0x82	0.10135225
248	0x72	-0.06081135
249	0x77	-0.010135225
250	0x74	-0.0405409
251	0x78	0.0
252	0x7b	0.030405674
253	0x82	0.10135225
254	0x7f	0.070946574
255	0x7a	0.02027045

MobilenetV1/MobilenetV1/Conv2d_12_depthwise/weights_quant/FakeQuantWithMinMaxVars u1 [1, 3, 3, 128] scale=0.0071496675 zero_point=99
0	0x4f	-0.14299335
1	0x3c	-0.27883703
2	0x80	0.20734036
3	0x4b	-0.17159203
4	0x30	-0.36463305
5	0x4e	-0.15014301
6	0x8e	0.3074357
7	0x86	0.25023836
8	0x41	-0.24308869
9	0x49	-0.18589136
10	0x8a	0.27883703
11	0x8c	0.29313636
12	0x81	0.21449003
13	0x0e	-0.60772175
14	0x52	-0.121544346
15	0x87	0.25738803
16	0x72	0.10724501
17	0x8e	0.3074357
18	0x43	-0.22878936
19	0x87	0.25738803
20	0x84	0.23593903
21	0x97	0.37178272
22	0x36	-0.32173502
23	0x49	-0.18589136
24	0x41	-0.24308869
25	0x35	-0.3288847
26	0xdf	0.8865588
27	0x4c	-0.16444235
28	0x85	0.24308869
29	0x88	0.2645377
30	0x9c	0.40753105
31	0x85	0.24308869
32	0x57	-0.08579601
33	0x76	0.13584368
34	0x4c	-0.16444235
35	0x81	0.21449003
36	0x3a	-0.29313636
37	0x8f	0.31458536
38	0x98	0.3789324
39	0x40	-0.25023836
40	0x34	-0.33603436
41	0x8c	0.29313636
42	0x81	0.21449003
43	0x2d	-0.38608205
44	0x8d	0.30028602
45	0x89	0.27168736
46	0x87	0.25738803
47	0x3c	-0.27883703
48	0x94	0.35033372
49	0x51	-0.12869401
50	0x88	0.2645377
51	0x8a	0.27883703
52	0x2d	-0.38608205
53	0x39	-0.30028602
54	0x7a	0.16444235
55	0x47	-0.2001907
56	0x80	0.20734036
57	0x8e	0.3074357
58	0x3e	-0.2645377
59	0x17	-0.5433747
60	0x2e	-0.3789324
61	0x4f	-0.14299335
62	0x83	0.22878936
63	0x52	-0.121544346
64	0x7e	0.19304103
65	0x4c	-0.16444235
66	0x8c	0.29313636
67	0x8c	0.29313636
68	0x7f	0.2001907
69	0x53	-0.11439468
70	0x4b	-0.17159203
71	0x49	-0.18589136
72	0x4e	-0.15014301
73	0x2d	-0.38608205
74	0x4d	-0.15729268
75	0x37	-0.31458536
76	0x1c	-0.5076264
77	0x80	0.20734036
78	0x95	0.3574834
79	0x44	-0.2216397
80	0x85	0.24308869
81	0x92	0.33603436
82	0x8a	0.27883703
83	0x0f	-0.60057205
84	0x8b	0.2859867
85	0x8a	0.27883703
86	0x44	-0.2216397
87	0x3d	-0.27168736
88	0x98	0.3789324
89	0x81	0.21449003
90	0xa8	0.49332705
91	0x7e	0.19304103
92	0x48	-0.19304103
93	0x8c	0.29313636
94	0x87	0.25738803
95	0x25	-0.4432794
96	0x50	-0.13584368
97	0x51	-0.12869401
98	0x7c	0.1787417
99	0x2e	-0.3789324
100	0x82	0.2216397
101	0x3f	-0.25738803
102	0x35	-0.3288847
103	0x49	-0.18589136
104	0x3d	-0.27168736
105	0x4e	-0.15014301
106	0x80	0.20734036
107	0x47	-0.2001907
108	0x9e	0.4218304
109	0x52	-0.121544346
110	0x7b	0.17159203
111	0x86	0.25023836
112	0x2c	-0.39323172
113	0x7b	0.17159203
114	0x82	0.2216397
115	0x3a	-0.29313636
116	0x92	0.33603436
117	0x4e	-0.15014301
118	0x60	-0.021449003
119	0x47	-0.2001907
120	0x54	-0.10724501
121	0x89	0.27168736
122	0x49	-0.18589136
123	0x3d	-0.27168736
124	0x77	0.14299335
125	0x89	0.27168736
126	0x3c	-0.27883703
127	0x39	-0.30028602
128	0x4a	-0.1787417
129	0x34	-0.33603436
130	0x88	0.2645377
131	0x47	-0.2001907
132	0x27	-0.42898005
133	0x4a	-0.1787417
134	0x98	0.3789324
135	0x8f	0.31458536
136	0x39	-0.30028602
137	0x43	-0.22878936
138	0x92	0.33603436
139	0x97	0.37178272
140	0x89	0.27168736
141	0x01	-0.70066744
142	0x50	-0.13584368
143	0x8f	0.31458536
144	0x74	0.121544346
145	0x97	0.37178272
146	0x3e	-0.2645377
147	0x8f	0.31458536
148	0x8c	0.29313636
149	0x9f	0.42898005
150	0x36	-0.32173502
151	0x46	-0.20734036
152	0x38	-0.3074357
153	0x2f	-0.37178272
154	0xff	1.1153481
155	0x47	-0.2001907
156	0x8d	0.30028602
157	0x91	0.3288847
158	0xac	0.52192575
159	0x8b	0.2859867
160	0x54	-0.10724501
161	0x7d	0.18589136
162	0x47	-0.2001907
163	0x89	0.27168736
164	0x2f	-0.37178272
165	0x9a	0.39323172
166	0xa1	0.4432794
167	0x39	-0.30028602
168	0x28	-0.4218304
169	0x91	0.3288847
170	0x8a	0.27883703
171	0x2a	-0.40753105
172	0x95	0.3574834
173	0x62	-0.0071496675
174	0x90	0.32173502
175	0x37	-0.31458536
176	0x9f	0.42898005
177	0x4c	-0.16444235
178	0x8e	0.3074357
179	0x93	0.34318405
180	0x2a	-0.40753105
181	0x2f	-0.37178272
182	0x80	0.20734036
183	0x3f	-0.25738803
184	0x86	0.25023836
185	0x97	0.37178272
186	0x3a	-0.29313636
187	0x12	-0.5791231
188	0x28	-0.4218304
189	0x48	-0.19304103
190	0x8c	0.29313636
191	0x4e	-0.15014301
192	0x85	0.24308869
193	0x47	-0.2001907
194	0x95	0.3574834
195	0x97	0.37178272
196	0x89	0.27168736
197	0x50	-0.13584368
198	0x44	-0.2216397
199	0x42	-0.23593903
200	0x4a	-0.1787417
201	0x21	-0.47187805
202	0x47	-0.2001907
203	0x30	-0.36463305
204	0x10	-0.5934224
205	0x89	0.27168736
206	0x9e	0.4218304
207	0x3d	-0.27168736
208	0x8d	0.30028602
209	0x9c	0.40753105
210	0x93	0.34318405
211	0x08	-0.65061975
212	0x95	0.3574834
213	0x93	0.34318405
214	0x3e	-0.2645377
215	0x36	-0.32173502
216	0xa2	0.45042905
217	0x87	0.25738803
218	0xb4	0.5791231
219	0x87	0.25738803
220	0x41	-0.24308869
221	0x94	0.35033372
222	0x90	0.32173502
223	0x1a	-0.52192575
224	0x4c	-0.16444235
225	0x4c	-0.16444235
226	0x7d	0.18589136
227	0x24	-0.45042905
228	0x8a	0.27883703
229	0x36	-0.32173502
230	0x38	-0.3074357
231	0x42	-0.23593903
232	0x38	-0.3074357
233	0x48	-0.19304103
234	0x88	0.2645377
235	0x44	-0.2216397
236	0xab	0.51477605
237	0x4f	-0.14299335
238	0x83	0.22878936
239	0x8c	0.29313636
240	0x23	-0.45757872
241	0x82	0.2216397
242	0x88	0.2645377
243	0x33	-0.34318405
244	0xa2	0.45042905
245	0x49	-0.18589136
246	0x5e	-0.035748336
247	0x43	-0.22878936
248	0x51	-0.12869401
249	0x94	0.35033372
250	0x41	-0.24308869
251	0x38	-0.3074357
252	0x86	0.25023836
253	0x92	0.33603436
254	0x31	-0.3574834
255	0x30	-0.36463305

MobilenetV1/MobilenetV1/Conv2d_12_pointwise/weights_quant/FakeQuantWithMinMaxVars u1 [256, 1, 1, 128] scale=0.017484024 zero_point=149
0	0x94	-0.017484024
1	0x95	0.0
2	0x98	0.052452073
3	0xa5	0.2797444
4	0x8e	-0.12238817
5	0xae	0.4371006
6	0xa0	0.19232427
7	0x91	-0.0699361
8	0x94	-0.017484024
9	0xa5	0.2797444
10	0xa1	0.20980829
11	0x9a	0.08742012
12	0x86	-0.26226038
13	0x97	0.03496805
14	0x8d	-0.1398722
15	0xa3	0.24477634
16	0x93	-0.03496805
17	0x95	0.0
18	0x98	0.052452073
19	0x8a	-0.19232427
20	0x95	0.0
21	0x87	-0.24477634
22	0x8d	-0.1398722
23	0x98	0.052452073
24	0xa1	0.20980829
25	0x89	-0.20980829
26	0x8d	-0.1398722
27	0x86	-0.26226038
28	0x9c	0.12238817
29	0x8d	-0.1398722
30	0x8e	-0.12238817
31	0x9c	0.12238817
32	0x97	0.03496805
33	0x91	-0.0699361
34	0x93	-0.03496805
35	0x95	0.0
36	0x95	0.0
37	0x8b	-0.17484024
38	0x91	-0.0699361
39	0x9b	0.104904145
40	0x9c	0.12238817
41	0x92	-0.052452073
42	0x9b	0.104904145
43	0x95	0.0
44	0x98	0.052452073
45	0x9b	0.104904145
46	0x9f	0.17484024
47	0x9b	0.104904145
48	0x96	0.017484024
49	0x90	-0.08742012
50	0x94	-0.017484024
51	0x98	0.052452073
52	0x91	-0.0699361
53	0x98	0.052452073
54	0x95	0.0
55	0x93	-0.03496805
56	0x89	-0.20980829
57	0x9a	0.08742012
58	0x9a	0.08742012
59	0x97	0.03496805
60	0x8c	-0.15735622
61	0x94	-0.017484024
62	0xa6	0.2972284
63	0x94	-0.017484024
64	0x9b	0.104904145
65	0x90	-0.08742012
66	0xa6	0.2972284
67	0x91	-0.0699361
68	0x97	0.03496805
69	0x9d	0.1398722
70	0x8c	-0.15735622
71	0x9a	0.08742012
72	0x96	0.017484024
73	0xa0	0.19232427
74	0xa0	0.19232427
75	0x81	-0.34968048
76	0x96	0.017484024
77	0x8e	-0.12238817
78	0x8e	-0.12238817
79	0x95	0.0
80	0x9a	0.08742012
81	0x93	-0.03496805
82	0x9a	0.08742012
83	0x83	-0.31471244
84	0x91	-0.0699361
85	0xa0	0.19232427
86	0x95	0.0
87	0x90	-0.08742012
88	0xa6	0.2972284
89	0x8b	-0.17484024
90	0x86	-0.26226038
91	0xa0	0.19232427
92	0x9f	0.17484024
93	0x95	0.0
94	0xa3	0.24477634
95	0xa4	0.26226038
96	0x92	-0.052452073
97	0x89	-0.20980829
98	0x89	-0.20980829
99	0x94	-0.017484024
100	0x9a	0.08742012
101	0xa2	0.22729231
102	0x8c	-0.15735622
103	0x87	-0.24477634
104	0x91	-0.0699361
105	0x8e	-0.12238817
106	0x86	-0.26226038
107	0x9b	0.104904145
108	0x90	-0.08742012
109	0xaa	0.3671645
110	0x92	-0.052452073
111	0x87	-0.24477634
112	0x93	-0.03496805
113	0x87	-0.24477634
114	0x8f	-0.104904145
115	0x9a	0.08742012
116	0x8f	-0.104904145
117	0x8a	-0.19232427
118	0x84	-0.2972284
119	0x92	-0.052452073
120	0x8d	-0.1398722
121	0x92	-0.052452073
122	0x97	0.03496805
123	0x92	-0.052452073
124	0x93	-0.03496805
125	0xa5	0.2797444
126	0x8b	-0.17484024
127	0x86	-0.26226038
128	0x91	-0.0699361
129	0x97	0.03496805
130	0x8d	-0.1398722
131	0x98	0.052452073
132	0x8e	-0.12238817
133	0x98	0.052452073
134	0x8a	-0.19232427
135	0x87	-0.24477634
136	0x98	0.052452073
137	0x8c	-0.15735622
138	0x99	0.0699361
139	0xa0	0.19232427
140	0x8f	-0.104904145
141	0x8d	-0.1398722
142	0x84	-0.2972284
143	0x9c	0.12238817
144	0x94	-0.017484024
145	0x98	0.052452073
146	0x91	-0.0699361
147	0x91	-0.0699361
148	0x8c	-0.15735622
149	0x97	0.03496805
150	0x8b	-0.17484024
151	0xa2	0.22729231
152	0x8c	-0.15735622
153	0x8e	-0.12238817
154	0x93	-0.03496805
155	0x86	-0.26226038
156	0x97	0.03496805
157	0x8a	-0.19232427
158	0x88	-0.22729231
159	0x9a	0.08742012
160	0x93	-0.03496805
161	0x9b	0.104904145
162	0xa1	0.20980829
163	0x9d	0.1398722
164	0x82	-0.33219647
165	0x8f	-0.104904145
166	0x8e	-0.12238817
167	0x94	-0.017484024
168	0x9a	0.08742012
169	0x8f	-0.104904145
170	0x9c	0.12238817
171	0x97	0.03496805
172	0x9b	0.104904145
173	0x9d	0.1398722
174	0x8d	-0.1398722
175	0x9b	0.104904145
176	0x8f	-0.104904145
177	0x92	-0.052452073
178	0x7f	-0.38464853
179	0xa0	0.19232427
180	0x90	-0.08742012
181	0x9e	0.15735622
182	0x89	-0.20980829
183	0x92	-0.052452073
184	0x95	0.0
185	0x92	-0.052452073
186	0x9a	0.08742012
187	0x9b	0.104904145
188	0x88	-0.22729231
189	0x9e	0.15735622
190	0x96	0.017484024
191	0x92	-0.052452073
192	0x8b	-0.17484024
193	0x93	-0.03496805
194	0xa4	0.26226038
195	0x96	0.017484024
196	0x93	-0.03496805
197	0x90	-0.08742012
198	0x92	-0.052452073
199	0x99	0.0699361
200	0x6c	-0.716845
201	0x91	-0.0699361
202	0x9b	0.104904145
203	0x89	-0.20980829
204	0x99	0.0699361
205	0x94	-0.017484024
206	0x96	0.017484024
207	0x8d	-0.1398722
208	0x8e	-0.12238817
209	0x8f	-0.104904145
210	0x99	0.0699361
211	0x93	-0.03496805
212	0x95	0.0
213	0x99	0.0699361
214	0x8f	-0.104904145
215	0xa1	0.20980829
216	0x9f	0.17484024
217	0x93	-0.03496805
218	0x8d	-0.1398722
219	0x96	0.017484024
220	0x9b	0.104904145
221	0x80	-0.3671645
222	0x91	-0.0699361
223	0x98	0.052452073
224	0x98	0.052452073
225	0x98	0.052452073
226	0x9d	0.1398722
227	0x91	-0.0699361
228	0x90	-0.08742012
229	0x9d	0.1398722
230	0x8e	-0.12238817
231	0x90	-0.08742012
232	0x8a	-0.19232427
233	0x94	-0.017484024
234	0x96	0.017484024
235	0x8e	-0.12238817
236	0x9c	0.12238817
237	0x99	0.0699361
238	0x8c	-0.15735622
239	0x8e	-0.12238817
240	0x98	0.052452073
241	0xac	0.40213257
242	0x8d	-0.1398722
243	0x9e	0.15735622
244	0x95	0.0
245	0x95	0.0
246	0x87	-0.24477634
247	0x93	-0.03496805
248	0x9d	0.1398722
249	0x90	-0.08742012
250	0x97	0.03496805
251	0x8c	-0.15735622
252	0x94	-0.017484024
253	0xaf	0.45458463
254	0x8c	-0.15735622
255	0x89	-0.20980829

MobilenetV1/MobilenetV1/Conv2d_13_depthwise/weights_quant/FakeQuantWithMinMaxVars u1 [1, 3, 3, 256] scale=0.031693485 zero_point=190
0	0xcd	0.47540227
1	0xd7	0.7923371
2	0x9c	-1.0775784
3	0xc6	0.25354788
4	0xc5	0.22185439
5	0xcc	0.44370878
6	0xb6	-0.25354788
7	0xcd	0.47540227
8	0xe7	1.2994329
9	0xcc	0.44370878
10	0xcd	0.47540227
11	0xcc	0.44370878
12	0xd3	0.66556317
13	0xcd	0.47540227
14	0xb8	-0.1901609
15	0xd3	0.66556317
16	0xc6	0.25354788
17	0xb6	-0.25354788
18	0xaf	-0.47540227
19	0xb4	-0.31693485
20	0xcd	0.47540227
21	0xce	0.50709575
22	0xc8	0.31693485
23	0xcd	0.47540227
24	0xb0	-0.44370878
25	0x6a	-2.6622527
26	0xd3	0.66556317
27	0xb5	-0.28524137
28	0xcf	0.5387892
29	0xca	0.3803218
30	0xb8	-0.1901609
31	0xcc	0.44370878
32	0xb3	-0.34862834
33	0xd0	0.57048273
34	0xc8	0.31693485
35	0xaa	-0.6338697
36	0xad	-0.5387892
37	0xb0	-0.44370878
38	0xd3	0.66556317
39	0xb7	-0.22185439
40	0x01	-5.9900684
41	0xc9	0.34862834
42	0xcd	0.47540227
43	0xcc	0.44370878
44	0xcc	0.44370878
45	0xce	0.50709575
46	0xce	0.50709575
47	0xb0	-0.44370878
48	0xe1	1.109272
49	0xb6	-0.25354788
50	0xb3	-0.34862834
51	0xca	0.3803218
52	0xb8	-0.1901609
53	0xce	0.50709575
54	0xbf	0.031693485
55	0xcb	0.4120153
56	0xc7	0.28524137
57	0xb0	-0.44370878
58	0xd2	0.6338697
59	0xb5	-0.28524137
60	0xae	-0.50709575
61	0xae	-0.50709575
62	0xb2	-0.3803218
63	0xde	1.0141915
64	0xd6	0.7606436
65	0xb7	-0.22185439
66	0xb3	-0.34862834
67	0xd1	0.6021762
68	0xb4	-0.31693485
69	0xb3	-0.34862834
70	0xd6	0.7606436
71	0xc7	0.28524137
72	0xca	0.3803218
73	0xaf	-0.47540227
74	0xde	1.0141915
75	0x99	-1.1726589
76	0xb2	-0.3803218
77	0xcc	0.44370878
78	0xb4	-0.31693485
79	0xcf	0.5387892
80	0xd7	0.7923371
81	0xb8	-0.1901609
82	0xcb	0.4120153
83	0xb7	-0.22185439
84	0xb2	-0.3803218
85	0xc6	0.25354788
86	0xc5	0.22185439
87	0xad	-0.5387892
88	0xd1	0.6021762
89	0xc4	0.1901609
90	0xd1	0.6021762
91	0xb3	-0.34862834
92	0xcd	0.47540227
93	0xc3	0.15846743
94	0xca	0.3803218
95	0xcb	0.4120153
96	0xb7	-0.22185439
97	0xca	0.3803218
98	0xe6	1.2677394
99	0xd5	0.72895014
100	0xb3	-0.34862834
101	0xaf	-0.47540227
102	0xb4	-0.31693485
103	0xaf	-0.47540227
104	0xb8	-0.1901609
105	0xc9	0.34862834
106	0xb6	-0.25354788
107	0xcb	0.4120153
108	0xad	-0.5387892
109	0xce	0.50709575
110	0xc8	0.31693485
111	0xcc	0.44370878
112	0xcb	0.4120153
113	0xb4	-0.31693485
114	0xc7	0.28524137
115	0xcf	0.5387892
116	0xcb	0.4120153
117	0xcb	0.4120153
118	0xce	0.50709575
119	0x70	-2.472092
120	0xd4	0.6972567
121	0xce	0.50709575
122	0xc7	0.28524137
123	0xca	0.3803218
124	0xe2	1.1409655
125	0xb4	-0.31693485
126	0xa8	-0.6972567
127	0xb3	-0.34862834
128	0xec	1.4579003
129	0xc6	0.25354788
130	0xe1	1.109272
131	0xb7	-0.22185439
132	0xa8	-0.6972567
133	0xcd	0.47540227
134	0xcb	0.4120153
135	0xb4	-0.31693485
136	0xb2	-0.3803218
137	0xcd	0.47540227
138	0xcf	0.5387892
139	0xc4	0.1901609
140	0xad	-0.5387892
141	0xc7	0.28524137
142	0xc6	0.25354788
143	0xc9	0.34862834
144	0xcf	0.5387892
145	0xe7	1.2994329
146	0xb8	-0.1901609
147	0xc8	0.31693485
148	0xab	-0.6021762
149	0xb3	-0.34862834
150	0xb1	-0.4120153
151	0xb6	-0.25354788
152	0xb3	-0.34862834
153	0xb5	-0.28524137
154	0xd5	0.72895014
155	0xab	-0.6021762
156	0xb3	-0.34862834
157	0xb4	-0.31693485
158	0xcd	0.47540227
159	0xb5	-0.28524137
160	0xcb	0.4120153
161	0xba	-0.12677394
162	0xc5	0.22185439
163	0xcd	0.47540227
164	0xce	0.50709575
165	0xb1	-0.4120153
166	0xd4	0.6972567
167	0xaf	-0.47540227
168	0xce	0.50709575
169	0xce	0.50709575
170	0xc8	0.31693485
171	0xad	-0.5387892
172	0xcb	0.4120153
173	0x06	-5.831601
174	0xcd	0.47540227
175	0xc5	0.22185439
176	0xb8	-0.1901609
177	0xcc	0.44370878
178	0xcc	0.44370878
179	0xb8	-0.1901609
180	0xa9	-0.66556317
181	0xb6	-0.25354788
182	0xd9	0.8557241
183	0xb9	-0.15846743
184	0xea	1.3945134
185	0xce	0.50709575
186	0xa7	-0.72895014
187	0xb6	-0.25354788
188	0xb4	-0.31693485
189	0xb3	-0.34862834
190	0xb6	-0.25354788
191	0x9f	-0.98249805
192	0xa6	-0.7606436
193	0xcd	0.47540227
194	0xb5	-0.28524137
195	0xb2	-0.3803218
196	0xca	0.3803218
197	0xb4	-0.31693485
198	0xc5	0.22185439
199	0xce	0.50709575
200	0xac	-0.57048273
201	0xb1	-0.4120153
202	0xb8	-0.1901609
203	0xb5	-0.28524137
204	0xb0	-0.44370878
205	0xcd	0.47540227
206	0xc8	0.31693485
207	0xc3	0.15846743
208	0xb3	-0.34862834
209	0xd0	0.57048273
210	0xc8	0.31693485
211	0xb7	-0.22185439
212	0xb8	-0.1901609
213	0xc8	0.31693485
214	0xcd	0.47540227
215	0xb8	-0.1901609
216	0xcb	0.4120153
217	0xad	-0.5387892
218	0xcf	0.5387892
219	0xcc	0.44370878
220	0xb6	-0.25354788
221	0xcc	0.44370878
222	0xb4	-0.31693485
223	0x87	-1.7431417
224	0xb4	-0.31693485
225	0xcf	0.5387892
226	0xcc	0.44370878
227	0xb6	-0.25354788
228	0xb1	-0.4120153
229	0xd0	0.57048273
230	0xd3	0.66556317
231	0xbf	0.031693485
232	0xc1	0.09508045
233	0xb1	-0.4120153
234	0xb3	-0.34862834
235	0xd8	0.8240306
236	0xb8	-0.1901609
237	0xb3	-0.34862834
238	0xb1	-0.4120153
239	0xb0	-0.44370878
240	0xcc	0.44370878
241	0xab	-0.6021762
242	0xa1	-0.9191111
243	0xc9	0.34862834
244	0xb3	-0.34862834
245	0xc8	0.31693485
246	0xcc	0.44370878
247	0xc9	0.34862834
248	0xc7	0.28524137
249	0xb6	-0.25354788
250	0xa7	-0.72895014
251	0xc8	0.31693485
252	0xae	-0.50709575
253	0xdc	0.95080453
254	0xc8	0.31693485
255	0xe4	1.2043524
